pathmnist_simplecnn.pth (torch, 117333 bytes, 4 tensors)

conv1.weight f4 [16, 3, 3, 3]
-0.21825974 0.11014952 0.16679198 -0.15234682 -0.15374693 0.114915706 0.16729224 0.033325184
-0.18769951 0.10639342 0.13146809 0.19828795 -0.2111357 -0.031228375 -0.038498078 0.040382154
-0.13209482 0.0020048055 0.09236979 0.08922752 0.092194565 -0.18116035 -0.022788234 -0.117937945
-0.022755515 -0.080087975 -0.02408735 0.10131853 0.07670923 0.008336198 0.084818445 -0.080490194
-0.076151215 -0.0587264 0.08723039 0.1486667 -0.23702283 -0.29765517 -0.083044544 -0.20267545
-0.08334258 -0.16102406 0.009453325 -0.03895424 -0.21128185 0.101606734 0.1845656 0.024455866
0.09334282 -0.025469681 0.14119418 -0.008402536 -0.06501924 0.05197234 0.09566497 0.18365291
0.08924809 0.07138402 0.20159912 -0.046990685 -0.096909866 -0.20050944 -0.14130446 0.1900047
0.20068197 0.12028498 0.0033784346 0.20122957 -0.19078918 -0.09857255 0.06336111 -0.13006124
0.060030486 0.087706886 -0.2062892 0.12532966 -0.064453624 -0.28276253 -0.24653894 -0.18640028
-0.09033804 -0.09886717 -0.13956742 0.11280545 0.07796309 -0.030828126 0.0061061312 0.04181976
0.13285737 -0.08228723 0.03249552 0.2722278 0.14407896 0.2701562 0.36339042 0.29727027
-0.058160134 0.012299714 0.1394951 0.14100523 0.024281783 -0.12571149 -0.06707293 -0.07821546
0.07825336 -0.19058321 -0.14522363 -0.06431931 0.24607041 -0.17752123 0.07474154 -0.21001692
0.22607222 0.03530612 0.11897505 0.028375104 0.17824785 0.17484526 -0.06150119 -0.047129847
-0.40759796 0.3678128 -0.24809964 -0.17681621 0.025944643 0.1602533 -0.078381166 -0.025585948
-0.12212146 -0.17439291 0.20396462 0.06941063 -0.046105303 -0.18760066 -0.12708156 -0.019307507
0.14193104 0.10798393 0.08770667 -0.12720206 0.13561702 -0.036592904 0.08785466 0.11372497
-0.05710494 -0.04569004 -0.07031247 -0.06821388 0.007813949 -0.092442386 -0.01185241 -0.1039096
-0.2650422 0.149593 0.14424008 0.17117538 0.13612795 0.095021054 -0.009265569 0.1360382
-0.038350716 -0.04004705 -0.1376611 0.0012268979 -0.117149234 0.13206412 -0.043944195 0.035782285
-0.12387537 -0.06357499 0.16165504 0.18488625 -0.008829725 0.055475768 0.016179763 -0.09213127
-0.036716975 0.08373433 -0.068615146 0.23704813 -0.16244599 -0.14898148 0.046925213 -0.2242808
-0.1287852 0.096801974 0.053229574 -0.15784939 0.035339754 -0.14300291 -0.006545809 -0.10310283
0.120663054 -0.2783646 -0.20382641 -0.23232295 -0.041367922 0.09861345 -0.028480157 0.16095263
0.11537474 0.09929432 0.03957595 0.033635344 0.07206076 -0.0057842485 0.11249281 -0.13368958
0.073558524 0.15603785 0.0367349 -0.06924167 -0.08538745 0.17814901 0.036859635 0.17887376
0.14834595 -0.0075041153 0.053979553 0.0904717 0.09213533 0.16068394 -0.06833698 0.1606542
0.12236237 -0.17433383 0.12506758 -0.006517679 0.052345753 -0.31416956 -0.24834654 -0.06067297
-0.033076476 0.011998558 0.111352324 0.059053518 0.012190739 -0.029672492 -0.19269958 0.026048968
-0.0015272116 0.085795105 -0.0066788206 0.08218725 0.117354795 -0.20271708 -0.15591484 -0.17472737
0.08296689 -0.04214719 -0.18224123 0.07810789 -0.068005115 0.17580739 -0.097403325 0.1092921
00000000: 7b7f 5fbe 1296 e13d 84cb 2a3e ce00 1cbe
00000010: d66f 1dbe ed58 eb3d a84e 2b3e fd7f 083d
00000020: 4d34 40be cbe4 d93d 929f 063e ff0b 4b3e
00000030: f533 58be a6d2 ffbc 29b0 1dbd c267 253d
00000040: dd43 07be 0e63 033b 5f2c bd3d ebbc b63d
00000050: 81d0 bc3d 1982 39be 64ae babc 7389 f1bd
00000060: c669 babc 2a05 a4bd d652 c5bc 1780 cf3d
00000070: bb19 9d3d 8c94 083c 4bb5 ad3d 0bd8 a4bd
00000080: 2bf5 9bbd 188b 70bd d9a5 b23d 153c 183e
00000090: 1db6 72be 4266 98be 4213 aabd 278a 4fbe
000000a0: 84af aabd 7ee3 24be 1ee2 1a3c 7b8e 1fbd
000000b0: 455a 58be 3117 d03d c4fe 3c3e ab57 c83c
000000c0: 852a bf3d cba5 d0bc 3595 103e caaa 09bc
000000d0: cf28 85bd f3e0 543d ffeb c33d 820f 3c3e
000000e0: b4c7 b63d c931 923d 0070 4e3e 4e79 40bd
000000f0: ae78 c6bd 5952 4dbe 1eb2 10be 9890 423e
00000100: 937f 4d3e f957 f63d ba68 5d3b 200f 4e3e
00000110: 3d5e 43be 68e0 c9bd 78c3 813d c62e 05be
00000120: 87e2 753d ab9f b33d 7a3d 53be 6b56 003e
00000130: 4300 84bd 40c6 90be b474 7cbe b7df 3ebe
00000140: 2603 b9bd df7a cabd c3ea 0ebe 8b06 e73d
00000150: 1dab 9f3d 448b fcbc f115 c83b 324b 2b3d
00000160: c30b 083e 3586 a8bd 061a 053d 7161 8b3e
00000170: 6f89 133e ea51 8a3e 4f0e ba3e cf33 983e
00000180: 5239 6ebd bd84 493c ced7 0e3e ad63 103e
00000190: 97ea c63c 83ba 00be 885d 89bd 6d2f a0bd
000001a0: 4c43 a03d 3f28 43be 81b5 14be d8b9 83bd
000001b0: e2f9 7b3e 20c8 35be 1812 993d ad0e 57be
000001c0: 7a7f 673e 269d 103d 31a9 f33d e872 e83c
000001d0: 9b86 363e a30a 333e ace8 7bbd 3a0b 41bd
000001e0: aeb0 d0be f651 bc3e d50d 7ebe 4f0f 35be
000001f0: dc89 d43c 7119 243e 4e86 a0bd 9f99 d1bc
00000200: d11a fabd 0e94 32be 1adc 503e 2927 8e3d
00000210: ead8 3cbd 631a 40be ab21 02be c72a 9ebc
00000220: 5f56 113e ae26 dd3d 8e9f b33d 4241 02be
00000230: 30df 0a3e 71e2 15bd 25ed b33d a3e8 e83d
00000240: dfe6 69bd 7b25 3bbd fcff 8fbd b8b3 8bbd
00000250: 1406 003c 6f52 bdbd 9c30 42bc 8ece d4bd
00000260: 9cb3 87be e82e 193e acb3 133e 9948 2f3e
00000270: 2065 0b3e 669a c23d 9dce 17bc 994d 0b3e
00000280: a415 1dbd 6008 24bd 08f7 0cbe ddcf a03a
00000290: f0eb efbd d13b 073e d4fe 33bd 7290 123d
000002a0: 5fb2 fdbd 9b33 82bd e688 253e d252 3d3e
000002b0: 8daa 10bc 8f3a 633d 6c8b 843c 52af bcbd
000002c0: 8a64 16bd e87c ab3d 1986 8cbd bfbc 723e
000002d0: 3e58 26be 9a8e 18be a734 403d dea9 65be
000002e0: 44e0 03be 1d40 c63d 4107 5a3d 45a3 21be
000002f0: 6bc0 103d 5b6f 12be 3a7e d6bb 9427 d3bd
00000300: 311e f73d ce85 8ebe dfb7 50be 11e6 6dbe
00000310: 6971 29bd d9f5 c93d 384f e9bc c4d0 243e
00000320: 9749 ec3d d25a cb3d 641a 223d 37c5 093d
00000330: 9794 933d cb89 bdbb a162 e63d ece5 08be
00000340: daa5 963d 63c8 1f3e 5677 163d 94ce 8dbd
00000350: 9edf aebd b26c 363e 21fa 163d af2a 373e
00000360: 00e8 173e 15e5 f5bb aa19 5d3d 3a49 b93d
00000370: 73b1 bc3d 558a 243e 42f4 8bbd 8982 243e
00000380: 1f99 fa3d 9184 32be b711 003e 4192 d5bb
00000390: 8068 563d d5da a0be 8e4e 7ebe 3884 78bd
000003a0: 337b 07bd 9a95 443c b00c e43d 1ae2 713d
000003b0: aabb 473c ba13 f3bc 0a53 45be a564 d53c
000003c0: b82c c8ba 58b5 af3d 02da dabb ca51 a83d
000003d0: b657 f03d 1195 4fbe 24a8 1fbe bbeb 32be
000003e0: 8bea a93d 88a2 2cbd 729d 3abe 08f7 9f3d
000003f0: 4446 8bbd da06 343e 657b c7bd 89d4 df3d

conv1.bias f4 [16]
0.12593134 0.13563667 0.19826876 -0.32551947 -0.051968046 -0.3590016 0.28857297 0.20768932
-0.31708792 0.35771173 0.010887003 -0.022128746 -0.14420876 0.014462472 0.007592691 -0.060689416
00000000: 25f4 003e 57e4 0a3e f706 4b3e 7daa a6be
00000010: 72dc 54bd 0fcf b7be d6bf 933e 82ac 543e
00000020: 5959 a2be fe25 b73e 665f 323c 5847 b5bc
00000030: 76ab 13be 01f4 6c3c 1ccc f83b 7795 78bd

fc1.weight f4 [9, 3136]
0.06563496 0.02049845 0.047906734 0.018355012 0.06370997 0.0064026397 0.048667617 0.014145461
0.03382821 0.026181286 -0.009741353 -0.0063480297 0.021062573 0.06551906 0.050806742 -0.04026219
-0.0376493 -0.062231194 0.0059477934 -0.017681463 -0.013865747 -0.011208053 -0.027790086 -0.057723895
-0.026307052 -0.07361596 -0.07166231 -0.034351807 0.00046779047 0.008447753 0.01488746 -0.040426277
-0.040976305 0.0029813414 -0.03451613 -0.026740318 -0.069605954 -0.047381774 -0.02992976 -0.004216047
-0.04707623 -0.015705366 0.0026955984 -0.08809484 -0.07177459 -0.007627291 -0.0053179404 -0.0058336463
-0.061226565 -0.008761032 -0.040291917 -0.058954116 -0.05131299 -0.062394544 -0.08929899 -0.02169569
0.017026335 -0.026566578 -0.059790146 -0.039595146 -0.0011268203 -0.039333362 0.034042615 0.0056247823
-0.029762916 -0.03840351 -0.06768997 -0.02048103 -0.07524714 -0.026978247 0.023701858 -0.021752773
-0.06820566 -0.06540244 -0.053355124 -0.07125586 -0.07100297 -0.04859473 0.013931105 -0.019969681
-0.06858326 -0.06066547 0.016028997 -0.023794165 0.022391714 -0.026676297 -0.06133064 -0.06369545
-0.07353199 -0.011809823 -0.01126427 -0.036432482 -0.09097362 -0.0573226 -0.0116591 -0.015511512
-0.03848981 -0.043254822 0.01133381 -0.05156011 -0.090530775 -0.07158316 -0.07037847 -0.030539034
-0.070768945 -0.050654054 -0.056678716 -0.094524145 -0.11902922 -0.044528477 -0.025313301 0.06332496
0.00496512 -0.054557066 -0.024707539 -0.0706395 -0.0868533 -0.023046687 -0.05181604 -0.09346128
-0.07644949 -0.07558516 -0.079598315 -0.040607687 -0.04508844 -0.049623825 0.019920453 -0.028344227
-0.07706058 -0.040803928 -0.04713379 -0.02360976 -0.03627428 -0.05003668 -0.02218362 -0.036490675
-0.05349781 -0.042079147 -0.05982974 -0.025659194 -0.01853359 -0.040762454 -0.042814746 -0.044605795
-0.023596287 -0.02484601 -0.08240235 -0.028140346 -0.005118915 -0.02783788 -0.0677809 -0.044878457
-0.032686327 0.06196859 0.031374823 -0.007874939 -0.02465578 -0.049419418 -0.028040368 -0.035021756
-0.051015362 -0.05830072 -0.083464354 -0.062240247 0.0074706133 -0.01007648 -0.026621545 -0.000996372
0.0013330386 -0.042047806 -0.04122657 -0.029607339 -0.025341729 -0.029076599 -0.032520376 -0.025224207
-0.028854318 -0.0410603 -0.037343115 0.014129679 0.02019977 -0.030917073 0.07105962 0.017027535
0.035787486 -0.0053959833 0.0053108423 0.002327357 0.018216504 0.005442603 -0.006024537 0.02440479
0.03372314 0.026282888 0.023665575 0.08897608 -0.2863997 -0.21923272 -0.20222834 -0.14284591
-0.16431047 -0.13256323 -0.13765697 -0.1259995 -0.12571383 -0.092225455 -0.13466768 -0.120975904
-0.12963095 -0.22442864 -0.21708134 -0.140399 -0.13634591 -0.09635406 -0.09375559 -0.077470854
-0.0945562 -0.112187155 -0.0983428 -0.060530744 -0.067211576 -0.08282323 -0.07237868 -0.14252564
-0.1460923 -0.07624357 -0.093470104 -0.06773107 -0.09116986 -0.07666589 -0.059089143 -0.03805487
-0.04021745 -0.05330791 -0.07656664 -0.0714276 -0.09370271 -0.12210183 -0.12395317 -0.073500626
-0.06900912 -0.06329192 -0.06041022 -0.07044733 -0.07099669 -0.039786413 -0.008240863 -0.07265785
-0.06752142 -0.054470584 -0.087969035 -0.1230926 -0.12340616 -0.025568787 -0.026955647 -0.017080916
00000000: 9f6b 863d 5eec a73c da39 443d 405d 963c
00000010: 5f7a 823d 3ccd d13b b257 473d 5dc2 673c
00000020: 738f 0a3d 237a d63c 329a 1fbc 2203 d0bb
00000030: 6b8b ac3c db2e 863d bb1a 503d f7e9 24bd
00000040: 2736 1abd 23e6 7ebd b5e5 c23b b7d8 90bc
00000050: 282d 63bc fba1 37bc 09a8 e3bc e46f 6cbd
00000060: e381 d7bc f7c3 96bd b0c3 92bd 7bb4 0cbd
00000070: c641 f539 7268 0a3c 88ea 733c 0696 25bd
00000080: c5d6 27bd 9c62 433b c960 0dbd 830e dbbc
00000090: 918d 8ebd 6413 42bd 422f f5bc c426 8abb
000000a0: 01d3 40bd 8aa8 80bc a3a8 303b 116b b4bd
000000b0: 8efe 92bd 5bee f9bb 1e42 aebb 2c28 bfbb
000000c0: b5c8 7abd 6e8a 0fbc 2309 25bd df79 71bd
000000d0: 922d 52bd 6c91 7fbd 64e2 b6bd 29bb b1bc
000000e0: d07a 8b3c 27a2 d9bc 83e6 74bd 852e 22bd
000000f0: d1b1 93ba 051c 21bd 4570 0b3d 1850 b83b
00000100: 5cd1 f3bc 004d 1dbd 0aa1 8abd d5c7 a7bc
00000110: 2c1b 9abd 7c01 ddbc 662a c23c df32 b2bc
00000120: 69af 8bbd b7f1 85bd e78a 5abd 98ee 91bd
00000130: 016a 91bd 450b 47bd 4a3f 643c 7597 a3bc
00000140: 6175 8cbd 5b7c 78bd 3e4f 833c fbeb c2bc
00000150: d46e b73c 4088 dabc d635 7bbd c372 82bd
00000160: f197 96bd fd7d 41bc c68d 38bc 3a3a 15bd
00000170: 6150 babd 1acb 6abd cf05 3fbc ff23 7ebc
00000180: 7ea7 1dbd f82b 31bd 72b1 393c b230 53bd
00000190: 3368 b9bd 319a 92bd 9622 90bd ff2c fabc
000001a0: 4fef 90bd a07a 4fbd f127 68bd e095 c1bd
000001b0: 97c5 f3bd 7e63 36bd d75d cfbc 84b0 813d
000001c0: 72b2 a23b 3b77 5fbd 7767 cabc 71ab 90bd
000001d0: 25e0 b1bd 68cc bcbc 0e3d 54bd a168 bfbd
000001e0: 8d91 9cbd 64cc 9abd 7104 a3bd 3f54 26bd
000001f0: a8ae 38bd 5a42 4bbd 3830 a33c 2732 e8bc
00000200: f0d1 9dbd 0522 27bd 5c0f 41bd 4169 c1bc
00000210: 5794 14bd 43f3 4cbd 6cba b5bc 3f77 15bd
00000220: 8520 5bbd 2f5b 2cbd 0810 75bd 3b33 d2bc
00000230: c1d3 97bc 88f6 26bd 845e 2fbd 91b4 36bd
00000240: 004d c1bc dc89 cbbc 90c2 a8bd 9586 e6bc
00000250: 92bc a7bb 440c e4bc b6d0 8abd 79d2 37bd
00000260: 19e2 05bd c7d2 7d3d e382 003d e305 01bc
00000270: ebfa c9bc 046c 4abd eab4 e5bc f972 0fbd
00000280: 7cf5 50bd bccc 6ebd 5cef aabd a1ef 7ebd
00000290: 0ccc f43b d217 25bc 6d15 dabc b298 82ba
000002a0: 5ab9 ae3a 523a 2cbd 31dd 28bd 178b f2bc
000002b0: 7599 cfbc 0c32 eebc 1634 05bd ffa2 cebc
000002c0: e45f ecbc d82e 28bd 18f5 18bd 2b80 673c
000002d0: fd79 a53c cd45 fdbc b587 913d 547d 8b3c
000002e0: e695 123d cad0 b0bb 9306 ae3b 9286 183b
000002f0: c73a 953c dd57 b23b 7b69 c5bb 8eec c73c
00000300: 4621 0a3d 364f d73c 4fde c13c 1739 b63d
00000310: fba2 92be 8b7e 60be f214 4fbe 3346 12be
00000320: 0141 28be a8be 07be f3f5 0cbe 0306 01be
00000330: 20bb 00be b3e0 bcbd 53e6 09be 37c2 f7bd
00000340: fabd 04be 9fd0 65be 924a 5ebe c1c4 0fbe
00000350: 439e 0bbe 4755 c5bd ee02 c0bd 0aa9 9ebd
00000360: aea6 c1bd 61c2 e5bd f367 c9bd 16ef 77bd
00000370: 39a6 89bd 3a9f a9bd 463b 94bd 3ef2 11be
00000380: 3899 15be 9725 9cbd 416d bfbd 96b6 8abd
00000390: 43b7 babd 0203 9dbd 7507 72bd 6cdf 1bbd
000003a0: 0ebb 24bd 6559 5abd f8ce 9cbd a248 92bd
000003b0: 35e7 bfbd 8610 fabd 29db fdbd 7f87 96bd
000003c0: a754 8dbd 329f 81bd b570 77bd b146 90bd
000003d0: b666 91bd 14f7 22bd af04 07bc a4cd 94bd
000003e0: ac48 8abd 8c1c 5fbd 1c29 b4bd f917 fcbd
000003f0: 5ebc fcbd a275 d1bc 17d2 dcbc 47ed 8bbc

fc1.bias f4 [9]
0.07931727 0.113559306 -0.027694365 0.00411565 0.0840257 -0.13965748 -0.021629361 -0.0104050785
0.045587238
00000000: 1871 a23d c891 e83d 4bdf e2bc 93dc 863b
00000010: ab15 ac3d 5f02 0fbe 0f30 b1bc 107a 2abc
00000020: afb9 3a3d
